PyTorch_learning_files/models/03_pytorch_computer_vision_model_2.pth (torch, 35762 bytes, 10 tensors)

conv_block_1.0.weight f4 [10, 1, 3, 3]
00000000: 025e 8f3e 1013 a83e b542 d3be 759b 063e
00000010: e2d8 a73d cc1f 543d f502 96be 876b 143e
00000020: 9647 b13e c29f afbe a056 ab3e a8c7 b6bd
00000030: fb34 243e ec79 a43e c8c5 333e 715f fabd
00000040: 01e4 d23e 432b 9e3d 8f26 bbbe 2686 f5bd
00000050: f2de 083d ef4d 11bf 077c 20bf 6304 3c3e
00000060: bf63 38bf 2c73 19bf eced dabd 533c 36bf
00000070: c4dc 82bf 791b 56bf 0f00 a73e 1a51 2dbf
00000080: ec9d b03d 542b 3f3e ae08 63bd 407d ca3e
00000090: 41c0 093e 8ba7 b23e 7cd3 78be d697 1dbe
000000a0: b015 6f3e e937 c7be d7e6 8c3d a548 b73e
000000b0: 450f ea3d a593 15be 3af9 3f3e 6c10 733d
000000c0: 9df9 293e 2b19 51be d74a a9be a4c8 01be
000000d0: 760c 83be fc0d 853e fa0f ba3d 49ff 313d
000000e0: bd79 4fbd 685c 003c 7a94 7c3e 7b1b 83be
000000f0: 2f1a 2dbe 2b64 06bf 41a5 c2bd 0122 a3bd
00000100: 837c a53d 206a 73be 382f c53e 29a0 82be
00000110: 3a5d eabe 6300 28be a0b0 ea3e d63d 3e3e
00000120: 226c 063f fff2 95be 1c6e d2be de82 85be
00000130: 64ea c1be ec96 fb3d 3dec 953e fe36 cb3e
00000140: a036 9dbd 0184 68be 5640 343e aa47 0abe
00000150: 6386 4e3e 7719 a5bd 334e 413e 58a2 84be
00000160: 0a46 2cbe 189a ce3d
0.2800141 0.32827044 -0.4126183 0.1314524 0.08195664 0.051788136 -0.2929913 0.14494143
0.34624928 -0.34301573 0.33464527 -0.089248 0.16035835 0.3212427 0.17555916 -0.12225235
0.41189578 0.07723095 -0.36552855 -0.119884774 0.033415742 -0.5675954 -0.6268925 0.18361048
-0.720272 -0.59941363 -0.10689911 -0.711858 -1.0223622 -0.8363567 0.32617232 -0.67701876
0.08623871 0.18668872 -0.0554282 0.39548683 0.13452245 0.3489345 -0.24299425 -0.15389952
0.23348117 -0.38909844 0.06879967 0.3579761 0.11428694 -0.14607103 0.18747416 0.059341833
0.16599126 -0.20419757 -0.3306491 -0.12674195 -0.25595444 0.25987232 0.090850785 0.04345635
-0.050653208 0.007834531 0.24666014 -0.25606903 -0.1690452 -0.52496594 -0.09504176 -0.0796547
0.08080389 -0.23770952 0.38512588 -0.25512818 -0.4577425 -0.16406398 0.4583788 0.18578276
0.5250875 -0.29286954 -0.41099632 -0.26076406 -0.37874138 0.122846454 0.29281798 0.39690393
-0.076764345 -0.22706605 0.17602667 -0.135039 0.20168452 -0.08061498 0.18877487 -0.25905108
-0.16823593 0.10087985

conv_block_1.0.bias f4 [10]
00000000: c633 a13d a5f3 ee3d 5097 643e a454 693e
00000010: a2a6 2c3d 6dc4 4ebe eb07 193e 184a b8bd
00000020: b067 5cbd e9f4 a5be
0.07871203 0.11667565 0.22323346 0.22786194 0.0421511 -0.20192118 0.14944427 -0.08998507
-0.05380982 -0.32413414

conv_block_1.2.weight f4 [10, 10, 3, 3]
00000000: 0b95 be3c da5d 03bd 0fd5 9bbd f316 83bd
00000010: c03e f7bd 7dcc 29be 4c22 ffbc 737b 1cbe
00000020: abd9 3ebe de6e bdbd 980c febc 56f9 85bd
00000030: ae70 c7bd 0d10 89be c82b 4fbe 8bb5 c4bd
00000040: f964 22be 52e4 74be abc1 bd3c c548 183d
00000050: 8115 0a3e b965 d93d f822 653e 0ea0 333e
00000060: 1598 7abd 7f94 ce3c c968 da3d 51d5 09be
00000070: d3d3 b43b 444e 20be 52b4 913d 9f74 a53c
00000080: f277 00be 4c7c 053e d574 9bbc 6572 dc3b
00000090: da17 f5bd b1fe 3bbe 1577 82bd c1ed 5dbd
000000a0: 9c54 11bd 2820 4bbe 2a9b 013e 9f0d c8bd
000000b0: 6ecb a6bd 4be5 b53c 5f57 5f3d 14a6 ad3d
000000c0: e721 c53d e433 abbd 5867 db3c 76d6 38bd
000000d0: c1ea 52bc 03fb 9ebd a261 083e 666f 93bd
000000e0: 7ebf 023c 9cb7 ef3d 5ae0 9e3d e5e0 ddbc
000000f0: d4b5 cc3d bbac aa3c 8526 4dbc 5a93 a4bd
00000100: ea5e 543d 6580 48bc b066 38bd 445f ba3d
00000110: 0a3e 1a3c 2ffa 1cbd 1f9f 33bd 25e5 c1bc
00000120: acc3 a43d 9890 bfbc 5b9d 61bd d688 febc
00000130: c1e8 83bd 324f 5a3d 90a4 e73d 15f8 aabd
00000140: 0d5e 423c 1a0a 5f3d 3d3d 9c3c 2bdc 19bd
00000150: 465a 613d c6e4 623d 8971 213d d8bc 97bc
00000160: c4a8 e4bc ccbe 383c 80f0 98bb a774 9cbd
00000170: c7f8 263d 3e2d fc3d 2185 a8bc 5c4d f3bc
00000180: 38f4 e13c 14d8 8d3c 40b1 303d feb3 c33c
00000190: ecb9 fdbd 5cce 3ebd 3d8d b03d ba30 0d3d
000001a0: 9099 9239 5669 b7bd 3830 c7bd 05cb d6bd
000001b0: 2643 a0bc 7b07 1e3d a0a1 9a3d 1559 5f3d
000001c0: 6ac3 c1bd d379 7ebd bc05 d4bb c4d0 e03d
000001d0: 414f 9e3c a442 363d 5909 ca3d e75c 63bc
000001e0: 790d 8fbd bf9f d33d f5c8 f6bc accb 04bd
000001f0: c38e ccbd 2f01 be3d a239 ab3d c5c3 b23c
00000200: cedf c7bd 0c39 06be dfd5 f3bd d3cb 683d
00000210: 282a 6d3d 12ce 9a3d 2b81 453d c7cb db3c
00000220: 1276 79ba 6d0c a4bd 43cb b8bd 12ab c9bd
00000230: 13a5 323d 12d2 53bd 4809 aebc 6d34 78bd
00000240: 39a0 82bc babc a0bd 3a77 80bd 7791 393d
00000250: afa8 d9bc f9d0 733d a6f2 4bbc b057 91bd
00000260: 7a60 66bc da29 d9bc e537 f8bc 0f1f d3bd
00000270: 4ddc 663d a6c6 7ebd 481d 783d b90b 433d
00000280: 85a0 a33d 8630 a2bd 131c bc3d 17c8 12bd
00000290: 0cfb 363d 0f79 d43d 24b4 dabc a596 3d3b
000002a0: f18b acbc 3b8d a3bd ae08 703d 724e d6bd
000002b0: 62f3 853d fc8f a13d 5520 cc3d cde8 cbbc
000002c0: da6e b1bd 341c c23c 4f83 6e3d 00de d6bd
000002d0: e451 d0bc fb9a 84bd 17e6 31bc f453 56bd
000002e0: 08a3 37bd 0229 11bd f356 d4bd 3642 a83d
000002f0: 8bba a93d 34eb 88bc 3ab7 48bc b028 31bd
00000300: 6305 c3bd 7b6e d2bd 8892 1d3d cda0 81bd
00000310: e5b4 93bd 0f72 69bc 8023 18bd efba 16bd
00000320: 0969 6c3a ee7f c1bc 18ab 1dbd 9f75 5abd
00000330: 31f7 b0bd ed2b b43d 4580 2cbd 3aa7 cf3c
00000340: ea61 1fbd 03f2 c23b d2fa c03d 4872 383d
00000350: e480 bfbd 0078 013d 1a6b b43d 5d90 933c
00000360: c3b4 8f3d 9029 d43d d8a2 85bc e520 ab3c
00000370: 741d 97bd 658a b8bc 4fce 933d 03d5 463d
00000380: fd98 96bd 421c adbd b685 93bd 9b0b d5bd
00000390: 7b94 a6bd 798d d5bc 38ea 913d d689 903c
000003a0: d102 a4bd 472e adbd 5dd0 4c3d 69e7 a5bd
000003b0: d7b5 79bc 5d8d 463d 2c16 54bd 2de2 5dbc
000003c0: f907 21bc 0d66 cfbc 1ebb 5bbd 3446 c0bd
000003d0: 7f83 aebd 6730 67bd e4ad d03d 3361 50bd
000003e0: cdad 91bd 4e99 b73c 7d43 dc3c c87e 603d
000003f0: 31ef a33d 0c06 703d 8213 d6bd ff9e 0a3c
0.023264429 -0.032071926 -0.07608997 -0.064008616 -0.120725155 -0.16581912 -0.031144284 -0.15281467
-0.18637721 -0.09249662 -0.031011865 -0.06541698 -0.09738289 -0.26770058 -0.20231545 -0.09604939
-0.1585883 -0.23915222 0.023163637 0.037178773 0.13484766 0.10615105 0.22376621 0.17541525
-0.061180193 0.025217293 0.106645174 -0.1346028 0.0055184155 -0.15654856 0.071144715 0.02019721
-0.12545756 0.13035697 -0.018976608 0.006727504 -0.1196744 -0.18358876 -0.06370369 -0.054181818
-0.03548108 -0.19836485 0.12656847 -0.09768223 -0.0814427 0.022204062 0.054526683 0.084789425
0.09625607 -0.08359507 0.026782677 -0.0451264 -0.0128733525 -0.077627204 0.13318494 -0.07198982
0.007980226 0.117049426 0.077576354 -0.027084777 0.099956185 0.020834317 -0.012521391 -0.080359176
0.05184833 -0.012237643 -0.045019805 0.09100202 0.009414205 -0.03832453 -0.04385292 -0.023668835
0.08045134 -0.023384377 -0.055081706 -0.031071108 -0.06440879 0.053298183 0.11310685 -0.08348099
0.011863244 0.054452993 0.01907217 -0.037563484 0.055017732 0.055393957 0.039414916 -0.018522665
-0.027912505 0.011275958 -0.0046673417 -0.07639437 0.040764596 0.12313317 -0.020571293 -0.029699974
0.027582273 0.017314948 0.04313779 0.023889538 -0.123889774 -0.04658352 0.08620689 0.034470297
0.00027961703 -0.08955638 -0.09725994 -0.10487942 -0.019563269 0.038581353 0.07550359 0.054528315
-0.094611004 -0.0621279 -0.00647041 0.10977319 0.0193249 0.044497147 0.09865064 -0.01387713
-0.069849916 0.103332035 -0.03012512 -0.0324208 -0.09988167 0.092775695 0.08360602 0.021821866
-0.09759484 -0.13107699 -0.11906027 0.056835007 0.05790153 0.07558836 0.048218887 0.026830567
-0.000951619 -0.080101825 -0.09023144 -0.09847082 0.04361446 -0.05171401 -0.02124466 -0.060596872
-0.01594554 -0.07848497 -0.06272741 0.04530474 -0.026569692 0.059525464 -0.012447989 -0.07096803
-0.014061088 -0.026509214 -0.03030009 -0.10308658 0.05636244 -0.062201165 0.0605748 0.0476186
0.07989601 -0.07919411 0.09185042 -0.03583535 0.04467301 0.103746526 -0.026697226 0.0028928902
-0.021062823 -0.07985922 0.058602028 -0.10464181 0.06540562 0.07888791 0.09967104 -0.024891282
-0.086637214 0.023695089 0.058230694 -0.10491562 -0.025429673 -0.06474873 -0.01085808 -0.052326158
-0.044833213 -0.0354395 -0.10368147 0.08215754 0.082875334 -0.016713716 -0.012250716 -0.043251693
-0.09522512 -0.10274979 0.03846982 -0.063294984 -0.07212237 -0.014248385 -0.03714323 -0.036799368
0.0009018337 -0.023620572 -0.038493246 -0.05333483 -0.08640898 0.08797441 -0.042114515 0.025348295
-0.038911738 0.00594926 0.0942284 0.045030862 -0.09350756 0.03160858 0.088094905 0.018013174
0.070168994 0.1035949 -0.016313002 0.020889709 -0.073786646 -0.02252693 0.072170846 0.048542988
-0.07353399 -0.084526554 -0.07203238 -0.10402604 -0.08133789 -0.026068436 0.07124752 0.01764385
-0.0800835 -0.08456092 0.0500034 -0.081007786 -0.015241108 0.04847466 -0.051778957 -0.013542694
-0.009828561 -0.025317216 -0.053645246 -0.0938839 -0.08521175 -0.056442644 0.10189417 -0.050873946
-0.07113228 0.022411969 0.02688765 0.054808408 0.080046065 0.058599517 -0.104529396 0.008460759

conv_block_1.2.bias f4 [10]
00000000: f16d e03e 2553 1ebd c57e 95bd ece5 033f
00000010: 1a04 f5bd 5dc0 e63d 65df 963d 153a 8b3d
00000020: 1f84 933e d3ea ad3d
0.4383388 -0.03865351 -0.0729957 0.5152271 -0.11963673 0.11267159 0.07366828 0.06798188
0.28811738 0.08492055

conv_block_2.0.weight f4 [10, 10, 3, 3]
00000000: 6603 3bbb db48 e0bd e102 68bd eef2 cabc
00000010: 1a68 703c 1c5d d33d 2486 c0bd d20a 2c3d
00000020: bc99 c63d e23c 503d 1ce9 c3bd f09d 22bd
00000030: 4867 abbd 3a88 69bd 90bc 793d e841 3ebc
00000040: 8cf6 3a3d 2139 65bd 9206 833c f45d 82bd
00000050: 688f 573d 7d94 3cbd f21b d8bc b52c bbbd
00000060: 9f65 a939 e119 cd3d cbe9 513d 17fa 0fbe
00000070: ed51 56bc 3ade 1dbd 0455 1ebe 2480 6e3d
00000080: e6af 24bd 73d2 823d 15ea b2bd 050d 44bd
00000090: 0b3a 823c 3a2f 143d 20df a83c dbdc 46bd
000000a0: b696 db3d afc8 a2bc ee8c 83bd 7e74 31bd
000000b0: 1098 cf3d 63a3 9f3c 29b4 e2bc f6d4 5ebd
000000c0: 8bae 33bc 11d9 b4bd a227 afbd d71a 8e3d
000000d0: 617d d63d 5da3 ab3d ee17 fdbd 4c0e ee3d
000000e0: 9abb fdbd 3a62 df3d 73f7 123e 0921 743d
000000f0: 41fa 5f3e 956e e73d 1a4b 17bc f804 d73c
00000100: 5120 213b efa2 123b 159f 20bb fedc 643d
00000110: 4bca febd b868 423d a21c 12bd de27 3ebd
00000120: 5b9a 0dbe 70e3 c6bd 17d4 14bb 7b1e 543d
00000130: d435 973d e661 5d3d 8911 47bd 40b1 e0bd
00000140: 6521 583d 75a8 e63d e3d1 57bc f8cc 9f3d
00000150: 1221 143e af14 ea3d 27db 86bc f136 0a3e
00000160: b697 043e 48f5 cd3d 1af8 90bd 55e9 8abe
00000170: d6b9 99be 3063 b43e 9fff 76be 63f7 abbd
00000180: 4f4c f83d 1295 013e a082 f93c c490 a53c
00000190: 7566 8fbd f21a e2bd 2240 2dbd e868 963d
000001a0: 1aec a3bd f816 3a3d 2fa6 0fbd 30d5 233d
000001b0: 1a7c 803d 05ef 163d 305f 5bbd 93ff afbd
000001c0: 4056 863b 52f6 7dbd fbe7 b13d 8824 cfbd
000001d0: 52dd 403d 0a4f 523e b72e 033f 19c0 953e
000001e0: 234e b0be acdc 2e3f 05ff 823e 8ad3 4dbf
000001f0: 4acf 59be fd95 48be 1a68 d93c dc54 d83d
00000200: fe99 95bd 1d70 80bd cf50 7c3c 7629 97bc
00000210: 74c1 923c 9ab9 c9bd 09b0 e7bc abf4 a33c
00000220: bce3 8abe 722f 5bbd 7f5e 8d3e d8d8 3b3e
00000230: ee11 71bc 90ec ec3d 70a0 5e3e 73d5 d33d
00000240: 218d fbbe 9f37 be3d dd7a a63d fbb3 09bf
00000250: 431c 0a3e 9421 b93e 162f 89be d110 1d3e
00000260: 2fb7 08be 566f 0fbe fb35 89be 808b 3fbd
00000270: 4e62 b5be 149e 0b3d 2f4d 9bbb a7de 32be
00000280: 72b2 cc3c 0543 74bd 8213 c7be 11dd 813e
00000290: 6c8a b93e 0b6d 88be e4f5 923e 7c1e 903e
000002a0: 9966 6cbe d5be c9bd 3b03 37be d7e3 773e
000002b0: f8fe 54be 5ee3 a6be cb39 943d 049f 163e
000002c0: 7a84 24be be05 0ebe 5393 213e 29e2 e83d
000002d0: ffea 35bd b9b2 913d 3869 493d 8a49 b1bd
000002e0: 9aec d1bd 9eb1 cbbd d49c b3bd 8f6e 77bd
000002f0: 2956 d6bc 9379 cdbc 109f 55bd c69c 0cbd
00000300: b940 12bd c1f0 d53d 3f5f 16bd 10b5 9cbd
00000310: 1b2f 313d fafb c4bb a446 a53d 4be3 863d
00000320: 2960 c63d a315 9ebd d1c3 8a3d 6a2b b53d
00000330: 4739 55bd 8770 c63d 27d5 a13d ed30 2abd
00000340: 543b 1a3d c0d7 3fbc 0eeb f3bd ff03 ed3c
00000350: 9817 653d cc2d f2bd 8944 16bb 0992 2cbe
00000360: 74f0 aa3d a22a cb3d ee95 823c e239 86bd
00000370: 1850 773d 0e5b 513c 61f1 783c 96af e73c
00000380: 5352 7f3d 68ef 7fbd 4105 4ebd 5fba ed3c
00000390: 2766 aeba d9c1 b23d 94bd 95bc 4d76 e2bc
000003a0: f006 363c e6d8 b8bc d256 ba3d b98a efbc
000003b0: fa1a 29bd 486c 00bc 8243 5bbd 4f92 333d
000003c0: 0860 76bd 9a0b fdbd 18b8 3abd 8787 843b
000003d0: 4ab0 39bd 2bcc ea3d ef4c 96bc 9f13 943d
000003e0: 1c9f 213d abe3 e1bd b501 8f3c f99b 8e3d
000003f0: 0905 b8bd b7d5 9dbd bb2f f03d ab88 8f3d
-0.0028535961 -0.10951396 -0.05664337 -0.024774041 0.014673257 0.103204936 -0.09400585 0.042002507
0.09697291 0.050839312 -0.095659465 -0.039701402 -0.08369309 -0.05701468 0.060970843 -0.011612393
0.04564528 -0.055962685 0.015994344 -0.063655764 0.052626997 -0.046040047 -0.026380513 -0.091393866
0.00032309906 0.10014702 0.051248353 -0.14060245 -0.013081056 -0.03854201 -0.15462118 0.058227673
-0.040206812 0.06387796 -0.08736054 -0.04786398 0.015896818 0.03617785 0.020614207 -0.048550468
0.10722105 -0.019871084 -0.064233646 -0.043323986 0.101364255 0.019487089 -0.027673798 -0.054402314
-0.010966907 -0.08830465 -0.08552481 0.06938713 0.10473133 0.083807684 -0.1235808 0.11623821
-0.12389298 0.10907407 0.14352207 0.059601817 0.21872808 0.11300389 -0.009234214 0.026247486
0.0024585912 0.0022374948 -0.0024508883 0.055874817 -0.12440928 0.04746315 -0.035671838 -0.04642474
-0.13828413 -0.09711349 -0.0022709423 0.05178688 0.07383314 0.05404844 -0.048600707 -0.10971308
0.052766223 0.112625994 -0.0131725995 0.078027666 0.1446574 0.11429726 -0.016461922 0.13497521
0.12948498 0.10056549 -0.070785716 -0.27131143 -0.30024594 0.35231924 -0.24120949 -0.08396795
0.1212393 0.12654522 0.030457795 0.020210631 -0.07001964 -0.11040296 -0.04229749 0.07344228
-0.08004017 0.04543206 -0.035070594 0.039998233 0.062736705 0.03684904 -0.053557575 -0.08593669
0.0040996373 -0.062002487 0.08686825 -0.1011439 0.047086067 0.20537964 0.51243156 0.2924812
-0.34434614 0.6830547 0.2558519 -0.8040091 -0.21270481 -0.19588466 0.026538897 0.10563061
-0.07304762 -0.06271384 0.015400126 -0.018452387 0.017914511 -0.09849854 -0.028282182 0.020014128
-0.27126873 -0.053512044 0.27611157 0.18344438 -0.014713747 0.11568558 0.2174089 0.103434466
-0.4913111 0.09287953 0.08128903 -0.53790253 0.13487343 0.3615843 -0.26793736 0.15338446
-0.13351129 -0.14007315 -0.26798996 -0.046763897 -0.35426563 0.034086302 -0.0047394256 -0.17467748
0.024987433 -0.059634227 -0.3888207 0.25363973 0.3623842 -0.26645693 0.28703225 0.28148258
-0.23086013 -0.098508514 -0.17872326 0.24208008 -0.20800388 -0.32595342 0.07237586 0.14709097
-0.16066161 -0.13869378 0.15778856 0.113712616 -0.044413563 0.07114167 0.04917261 -0.086566046
-0.10250206 -0.09945987 -0.08770147 -0.06040817 -0.026164131 -0.025082385 -0.052153647 -0.0343292
-0.035706256 0.10446311 -0.036711928 -0.076517224 0.043257814 -0.0060114833 0.08070114 0.065863214
0.0968631 -0.077189706 0.0677563 0.08846171 -0.052056577 0.09689432 0.07901984 -0.041550566
0.037654236 -0.011709154 -0.119100675 0.02893257 0.055930704 -0.11825141 -0.0022929034 -0.16852583
0.08346644 0.09920241 0.015940633 -0.06554009 0.060379118 0.012778057 0.015194268 0.028281968
0.06233437 -0.062484175 -0.05029798 0.029019533 -0.001330559 0.0872838 -0.018278874 -0.0276443
0.0111100525 -0.022564363 0.09098591 -0.029240953 -0.041285492 -0.007838316 -0.053531177 0.043840703
-0.060150176 -0.123557284 -0.04558572 0.0040444764 -0.045334138 0.11464723 -0.018347232 0.07230305
0.03945838 -0.11029752 0.017456869 0.06963343 -0.089853354 -0.077067785 0.11727854 0.07008489

conv_block_2.0.bias f4 [10]
00000000: 0b03 e4bd 7186 3e3e dfa6 00bd be6f 77bd
00000010: 0334 1abe adf9 b23d db74 863e 4298 0d3f
00000020: d5cb 3d3f 7a9a a6bc
-0.11133393 0.18605973 -0.03140914 -0.0604093 -0.15058903 0.08739028 0.2626103 0.5531045
0.7413915 -0.020337332

conv_block_2.2.weight f4 [10, 10, 3, 3]
00000000: 4bc9 1ebe d495 36be dace 99bd bf3b bfbd
00000010: c60e 93bc 2cba a13b 2581 9dbc 3395 00be
00000020: 9464 433d 61df 9fbb 24a8 a1be 1e87 ccbd
00000030: 1c6a 0fbe b6b6 0b3e 383d 76be 058f 843e
00000040: e61d 893d adbc 5bbf b1d8 4b3c 800a 953b
00000050: 9bd1 b33d d0ae ecbd 7326 843d 38bf a43c
00000060: 1360 5ebb 9986 c13d a7f0 d6bd d41b 88bb
00000070: f878 17bd bb1b 60bd 1e54 da3d a459 e2bd
00000080: 91ac 97be c02d 063e b1ea 0c3e 5ecd a7be
00000090: 4410 bcbd c7a9 c3bd 93dd 34bb 4fdb 7fbc
000000a0: 98df 0abe 1eac c0bd d47d f7bc ce5f 13be
000000b0: 770d 4bbe 055d 7ebd 4f5b 5abd c37d 0c3e
000000c0: 70fa 25bc a04b 873c 284d a73d 5d8d abbb
000000d0: 4f93 acbd aaec a6bd 742b 0cbf 77c9 2abc
000000e0: 1158 4bbf 40c6 86bd 15de 753d 9128 5e3e
000000f0: fb75 bfbe 27fa 953e 0fa6 d03e 2e22 863e
00000100: c58b d43d c8c6 2cbe 57a6 2f3e f8a3 73bd
00000110: e428 5dbd 007c c3bc c2de abbd f4db c53d
00000120: 0e2e c33e f0e3 5abd e244 a43d 14fd 02bd
00000130: dd22 a3be 7827 113e a1a2 a8be 4590 cdbe
00000140: dde3 21be 50fa 1cbc 956b 4e3d a27d 42bd
00000150: a6ac 443d ab4f 8abd e0c0 7bbd e50a 1e3d
00000160: 36c0 1ebd 8db2 86bd 05e8 443d 9c28 833d
00000170: 29f3 7b3a c714 8abd ecc0 bd3d 53af 91bd
00000180: 928b 243e b268 ea3c fad8 dfbb 6fa0 28bd
00000190: 72a2 2c3e ccf0 dbbd fb6e 91bd 0f6d b2be
000001a0: 2519 d63e fba3 cfbd a0bc 2abf df73 c43e
000001b0: 48c9 bf3a 6a03 e53c 5d68 ba3d 25fb 953d
000001c0: d15f 04bd 67da 443b a790 20bd a027 e7bd
000001d0: be2c 4cbd 2da4 39bd 0903 05bd b533 4bbd
000001e0: 2ec6 d13d d96a cebe 5029 83be c7b0 2b3e
000001f0: 6542 80be d6d1 43bc ddda 35bd f3d9 903c
00000200: a6a5 ca3d 3748 5a3d 61ea a8bd eb09 af3d
00000210: ffd3 033e b33b d23c bdf4 c0bd 3a5f 123b
00000220: fda4 643d a6e8 ae3d 07b6 92bd ae18 cdbd
00000230: a554 293d c851 3a3d f8c4 483d 6d98 503c
00000240: 77a0 0bbe 699a 81be 57fa 013e abc8 e6bd
00000250: 2dc5 fbbd 4158 a83e 17a8 743e ee8e 0dbe
00000260: 9cef 59bd 5bc6 a9bd 3f5a eebd 4b93 1f3e
00000270: daff ddbd 6bf2 b3be 1d08 a13e 951f 75bb
00000280: 5c29 1abf 113d 993e 674c 94be 89c2 3cbe
00000290: 0755 53be 1888 543d cfe9 063e 85e5 edbe
000002a0: 50ee f43d 691b 313e 75d1 22be 05ff 30bd
000002b0: de4c 9a3d 3c20 023e aee8 a9bd 2201 acbd
000002c0: a1a2 4a3d c2f2 2dbb ee01 1bbd 146a d4bd
000002d0: 855f 273e 4c70 863d dae7 93bd c953 1abd
000002e0: d7c4 3c3c 2e60 d0bd 99ad 753c 21e8 e03d
000002f0: 5a2f 5fbd 79aa 26bf 02d6 9fbe b381 dfbe
00000300: b01f a1be 700a 8c3e 688b 05be 8684 56be
00000310: bad5 863e 550b 0e3f f7cc 60bc f241 fbbc
00000320: bdce d0bc 63fd 4bbc ec28 db3c e175 763d
00000330: 0562 733c 2041 bebd 97be b03d 7841 b1be
00000340: 87d0 663e ed40 353d 0716 dd3e 9168 063e
00000350: 8ab2 51be 270d 0fbe 2336 86be 4f20 f33b
00000360: 4e67 bf3d e325 e1bd 739a 3ebe ac04 5abd
00000370: 24fe 7d3d 4896 3cbe 254c 833c 3bd1 4b3d
00000380: 61f5 d0bc c0a8 923d 79f3 af3b eb9f 11be
00000390: b3ac 923d 06d2 2d3c 9198 54bd 9e49 6bbd
000003a0: c216 c13a 2d8a abbd e92f 2bbf 75e4 65be
000003b0: 1f57 433e 4bee e1be 0439 43be 05bf 7ebe
000003c0: 72c5 f7bd 4c24 b63d 32f6 473e 5916 87be
000003d0: d46f 093f 5d67 733e 1f01 96be 8c6f 8e3e
000003e0: e32c 87bd 7dc6 953a c272 1abe 56d7 b1bd
000003f0: bbe2 c3bd f2a1 c4bd f506 00be 43af 1bbc
-0.15506475 -0.17830592 -0.07510157 -0.093375675 -0.01795138 0.0049355235 -0.01922662 -0.12556915
0.04770334 -0.0048789238 -0.31573594 -0.09986709 -0.14005321 0.13643917 -0.2404679 0.25890365
0.06695156 -0.8583477 0.0124418 0.004548371 0.087802134 -0.1155678 0.06452646 0.020110711
-0.0033931776 0.094495006 -0.104951195 -0.004153708 -0.0369806 -0.054713946 0.10660575 -0.11052254
-0.29623845 0.1310339 0.13761403 -0.3277387 -0.0918279 -0.09553867 -0.002759789 -0.015616252
-0.13561857 -0.09407829 -0.030211367 -0.14392015 -0.19829355 -0.06210043 -0.053309735 0.1371985
-0.01013051 0.016515553 0.08169013 -0.0052353577 -0.084265344 -0.08150609 -0.54753804 -0.0104240095
-0.79431254 -0.06580782 0.060026247 0.21695162 -0.373947 0.29292414 0.40751693 0.26197952
0.103782214 -0.16872704 0.17153297 -0.059482545 -0.053994074 -0.023862839 -0.08392097 0.09661093
0.38121074 -0.053440034 0.08020951 -0.031979635 -0.31862536 0.14175212 -0.32936576 -0.4014913
-0.15809579 -0.0095811635 0.050395567 -0.047483094 0.048016213 -0.06753477 -0.061463237 0.03858461
-0.038757525 -0.065770246 0.048072834 0.0640423 0.0009611124 -0.06742244 0.092653126 -0.071135186
0.16068867 0.028614376 -0.0068312855 -0.041168626 0.16858843 -0.10739288 -0.07101246 -0.3484883
0.4181606 -0.10138699 -0.6669407 0.38369653 0.001463213 0.02795573 0.09101937 0.07323293
-0.03231794 0.0030037405 -0.03920045 -0.11286855 -0.049847357 -0.045322586 -0.032473598 -0.04960986
0.10242878 -0.40315893 -0.25617456 0.16766654 -0.25050655 -0.011951884 -0.044398177 0.017682051
0.09894876 0.053291526 -0.08247829 0.085468136 0.12873839 0.025663232 -0.0942168 0.0022334591
0.055821408 0.08540468 -0.07163625 -0.10014473 0.04134049 0.04548815 0.04901597 0.012731654
-0.13635431 -0.25313118 0.12693153 -0.11268743 -0.12293468 0.32879832 0.23892246 -0.13824055
-0.053207025 -0.082897864 -0.11638307 0.15583532 -0.108398154 -0.35145888 0.31451502 -0.0037402858
-0.6021936 0.29929402 -0.2896454 -0.18433584 -0.20637904 0.0518876 0.13175128 -0.46464172
0.11959517 0.17295612 -0.15900214 -0.043211956 0.075341925 0.12707609 -0.08296333 -0.083986536
0.0494715 -0.00265424 -0.037843637 -0.10371795 0.16345032 0.06564388 -0.072219566 -0.03767756
0.01152154 -0.10174595 0.014995002 0.10981775 -0.054488517 -0.6510387 -0.31217963 -0.4365364
-0.31469488 0.27351713 -0.1304146 -0.20948991 0.26334935 0.5548604 -0.013720742 -0.030671094
-0.025489205 -0.012450549 0.026752912 0.06017101 0.014854913 -0.09289765 0.08630102 -0.3462026
0.22540484 0.04425137 0.43180868 0.13125826 -0.20478263 -0.13969861 -0.26213178 0.007419623
0.09345876 -0.109935544 -0.18613605 -0.05322711 0.062009946 -0.18416703 0.01602752 0.049760085
-0.02550763 0.07161093 0.0053696004 -0.1422116 0.07161846 0.0106091555 -0.05190331 -0.057443254
0.0014731514 -0.08375964 -0.6686998 -0.2245043 0.19076203 -0.44127116 -0.19064718 -0.24877556
-0.120982066 0.08893642 0.1952751 -0.26384237 0.5368626 0.23769899 -0.2929773 0.2781948
-0.06600358 0.0011426952 -0.15082839 -0.0868365 -0.0956473 -0.09601201 -0.12502654 -0.009502235

conv_block_2.2.bias f4 [10]
00000000: 8499 9f3e 13e3 cd3d c124 2f3e 3188 c33c
00000010: b124 0ebd bc81 253e 8dd4 cf3d f859 a7bd
00000020: 6342 933b 82c4 32be
0.3117181 0.100530766 0.17103864 0.023868652 -0.03470296 0.16162771 0.10147963 -0.08171457
0.004493998 -0.17457774

classifier.1.weight f4 [10, 490]
00000000: f08d c13b 44e9 25be 06a8 0c3e 62c1 73bd
00000010: f744 5e3d 5a82 5c3d 9cd8 b33d bb6e 883d
00000020: 1265 9e3e a43e a33d d173 35be 8638 f93d
00000030: 5de0 af3d 0f3d 7f3d 986e 883c bc6c 2f3d
00000040: 6018 0b3e 8a19 c4bd f43b 83bc ec50 f53b
00000050: a893 8ebd add9 18bd d294 2c3e 0660 393c
00000060: 1345 103d 026d b33d 54e5 ddbc 9fb0 3fbd
00000070: 6b46 a6bd a4ee 873b 6f6e 45bd d2fa 6b3b
00000080: ee89 003e 9212 adbd 1d56 c83c 9f17 1b3d
00000090: c7cd cfbd 8286 12bd c1b1 21be 44a3 d5bd
000000a0: 43f5 343e 7bfe 9fbd fd9c c33d 4631 efbd
000000b0: afb1 13be 3cfc da3b c654 71bd 9f62 893e
000000c0: 40c4 19bd 43c2 163e 968c 2f3e 5d71 56be
000000d0: c441 febd addc 413d 417f 0fbe 7360 d83d
000000e0: 85fd d33d 980c 61bd a022 24be 8d21 88bc
000000f0: 91ed 063d b23f 453d eb95 22bd 00f2 523d
00000100: bd33 483e 0a1b f4bd c8f2 2ebd 04e9 89bd
00000110: 97db 173e e1d9 d43c 81ed b13d 9db2 443b
00000120: 9879 afbb 1796 b0bd 38f2 d6bd 825c 643e
00000130: 866e a7bd 36e4 183d 0225 f6bd 44c1 54bd
00000140: 440a edbd fc19 a53d 71e0 613e 148f afbd
00000150: a46a 38be 0863 b3bc 47e6 26be 7639 21be
00000160: fd35 7db9 1ce2 01bd c76d 2d3d 4680 ccbd
00000170: 39c4 7b3b 1f6a 2c3e d05e 17bc 6ea2 7dbd
00000180: af65 6dbd 9e84 b03d a8af 8b3c 76cf 8ebc
00000190: cfd4 a53d 2b60 633d 6bea 443e fe14 fd3d
000001a0: 55fd dc3b 96db 7d3e 0728 ef3d 35df 483c
000001b0: 5a7f e93c 9490 63bd 2dba 303e 0d67 9d3c
000001c0: 847f 003e dd99 603e b8cb 9a3e 781a 653c
000001d0: 3e84 843d 06db f9bc a8a0 f1bc 92b0 8d3c
000001e0: 0679 14be 9e08 5ebc 02e2 00be 4292 3ebd
000001f0: 166d 013e 125f cebc 2d5e 16be ea22 c5bd
00000200: 94ae d93d f74e 48bd b623 e0bd 10f6 d83c
00000210: 6859 9c3d 9266 83bd a705 523d 362f 2a3d
00000220: 7549 66bd ae20 abbd b525 38bd 45e3 673d
00000230: a576 d1bd 7b45 cd3d d00c 7a3c 1475 30be
00000240: 90d0 f13c ee20 82bd 554e acbd d19d 343e
00000250: 04f4 babd eeb8 8abd 0c5e 83bb 2be0 c93d
00000260: bba5 773d b230 66bc 620f d3bd 025f 7ebd
00000270: 558b 01be 6839 6fbd 21e7 f0b9 4635 d1bd
00000280: 75a9 00be 23b1 0dbe 9e69 d8bb b16f fabd
00000290: bd04 1f3d 39f7 69bd 163c 91bd cc76 a73c
000002a0: b20a cf3b aead 163e 559d 0bbd 1a9b ae3c
000002b0: 71f8 ad3c 33a9 073c 3088 173e 451d 39bc
000002c0: 8b0f 553e 6268 6fbd 325a 88bd 6e01 64bd
000002d0: 0efe 3abd a88a 3e3e e497 5fbd a6e5 7e3e
000002e0: fa8a 88bd 2bb8 cebd 4312 f7bc de9f 89bc
000002f0: 677a 053e e894 eeba 72b8 023d b802 f3bd
00000300: 106e a3bc fd07 f7bd 0003 4fbd d643 4a3d
00000310: 83b6 8239 643e 44bc 45ea 2abd f48c 013b
00000320: eff7 063d c684 c8bc c155 11bc abed 98bb
00000330: b02a cabc acb4 ce3d 300f 473e c42c 603c
00000340: c02f 87bd 3cb1 443c eeed 9d3d ea64 863d
00000350: c5c5 4f3d a17e 3c3e 093a 5a3d 41d8 5f3e
00000360: 2d23 2d3e 124e 833e 4c97 893d 8036 39be
00000370: 4549 803c db30 613d 0e06 193e 2b5f e43d
00000380: c0ec c23d ba33 cdbd d675 4fbe 9eef 6a3d
00000390: 2500 90bc f0fc cabc 83d2 25bb 40ef f8b9
000003a0: 7bdc 1abe 658b 593c e0ec 883c daf3 15bd
000003b0: 3e74 e5bd 7568 48bd e142 20bd dc48 213c
000003c0: b141 3a3d cb61 763d ab90 8dbd 0c0c 78bd
000003d0: 0630 58bc cf05 72bc 2ed5 b33d 0ae2 053e
000003e0: 47f9 443d 08e2 013d 88ec 5f3e e4fc 923d
000003f0: ad2b a93c 7b46 8fbc 8296 243e a926 bf3d
0.005906813 -0.16202265 0.13735971 -0.059510596 0.05426499 0.05383525 0.08781549 0.06661745
0.30936486 0.07970932 -0.17719962 0.12168984 0.08587716 0.06231409 0.016654298 0.042828307
0.13583517 -0.09575184 -0.016019799 0.0074864533 -0.06961757 -0.037316967 0.16853645 0.011314398
0.035222124 0.08761026 -0.027086891 -0.0467993 -0.081189 0.004148321 -0.04820102 0.0036007655
0.12552616 -0.08450808 0.024455125 0.037864324 -0.10146671 -0.035772808 -0.15790464 -0.10431531
0.17671685 -0.0781221 0.095514275 -0.1167932 -0.1442325 0.0066829007 -0.058918737 0.26833054
-0.037540674 0.14722542 0.17143473 -0.20941682 -0.124148875 0.047329593 -0.14013387 0.10565271
0.103510894 -0.05494365 -0.16028833 -0.01661756 0.032941405 0.048156448 -0.039693754 0.05150032
0.19550987 -0.1191922 -0.042712003 -0.06733897 0.1482986 0.025982799 0.086878784 0.0030013688
-0.0053550713 -0.08622377 -0.10495418 0.22300914 -0.081753775 0.037327014 -0.120187774 -0.051942125
-0.11574224 0.08061597 0.22058274 -0.08572212 -0.1800943 -0.021897808 -0.16298781 -0.15744576
-0.00024148072 -0.031709775 0.04234102 -0.09985404 0.0038416518 0.16837357 -0.009238914 -0.061922483
-0.0579583 0.08619045 0.017051533 -0.01743291 0.08097231 0.055511635 0.19230048 0.123575196
0.0067440667 0.24790797 0.116775565 0.012260248 0.028503109 -0.055557802 0.1725852 0.019214178
0.12548643 0.21933694 0.3023355 0.013983361 0.06470536 -0.030499946 -0.029495552 0.01729611
-0.14499292 -0.013551859 -0.12586215 -0.0465262 0.12639269 -0.025191817 -0.14684363 -0.096258
0.10629001 -0.04890343 -0.10944311 0.02648452 0.076342404 -0.06416048 0.05127492 0.04154893
-0.056222398 -0.083558425 -0.044957835 0.056613225 -0.10227708 0.10023018 0.015261844 -0.17232162
0.029518396 -0.06353937 -0.08413378 0.17638327 -0.091285735 -0.06773554 -0.004009014 0.0985721
0.060460787 -0.014049696 -0.103056684 -0.062102325 -0.12650807 -0.058404356 -0.00045948572 -0.10215239
-0.12564643 -0.13837104 -0.0066043874 -0.12228335 0.03882288 -0.057120536 -0.070915386 0.020442389
0.0063184137 0.14714691 -0.03408559 0.021314193 0.02123663 0.008280086 0.14798045 -0.011298482
0.2080671 -0.058449157 -0.066578284 -0.055665426 -0.04565244 0.1860758 -0.054588214 0.24892291
-0.06667133 -0.10093721 -0.030160075 -0.016799863 0.13034974 -0.0018202337 0.031914182 -0.11865753
-0.019949943 -0.120620705 -0.05053997 0.0493811 0.00024931514 -0.011977766 -0.041727323 0.0019767853
0.03295129 -0.024477374 -0.008870543 -0.004667004 -0.024678558 0.10093054 0.19439387 0.013682548
-0.066009045 0.012005147 0.07711397 0.065622166 0.050725717 0.1840768 0.053278003 0.21859838
0.1690795 0.256455 0.06718311 -0.18087196 0.015659938 0.054978233 0.14943716 0.11150964
0.09517813 -0.10019632 -0.20259795 0.057357423 -0.017578194 -0.024778813 -0.0025302477 -0.000474805
-0.15123169 0.013277863 0.016714513 -0.036609508 -0.11203812 -0.048927743 -0.03912628 0.009844031
0.045472804 0.060151856 -0.06912359 -0.060558364 -0.013195043 -0.014771893 0.08780895 0.13074508
0.048089292 0.0317097 0.21867573 0.07177141 0.020650709 -0.017489662 0.16073039 0.09333546

classifier.1.bias f4 [10]
00000000: 751f 893d c1d6 22be 2641 da3e 73cd 60bd
00000010: 2dd7 ccbe 6188 13be 0c45 1a3e 6042 dc3b
00000020: 1c6d 403e 1b36 f0bd
0.06695453 -0.15902235 0.4262783 -0.05488343 -0.40007916 -0.14407493 0.15065402 0.0067217797
0.18791622 -0.1172907
